model/model.pth (torch, 8064 bytes, 4 tensors)

linear1.weight f4 [256, 2]
0.55393213 -0.41473916 0.1298848 0.3539565 0.20550615 -0.22449028 -0.2530275 0.0016171932
0.23509789 -0.460923 0.20942077 0.19077252 0.7143859 -0.35760057 0.048710953 0.027817309
0.28159922 -0.113735944 0.09862299 -0.050065428 0.5862833 0.33151275 -0.3667336 -0.623699
-0.4972033 0.16785386 0.37568104 0.028885147 -0.09774039 0.2809067 -0.9922252 0.43273672
-0.05489701 -0.40256554 -0.26957005 -0.59703547 0.097937666 0.038270373 0.50238204 0.41433963
-0.32624948 -0.2380842 0.199224 -0.664017 -0.4769957 -0.31835496 -0.64273524 -0.101637274
0.1659245 -0.038653355 0.17218785 0.12335801 0.6066426 -0.7386095 0.6560414 -0.75781614
0.12095949 0.2602713 0.03296883 -0.07865762 0.0035634516 0.24473876 0.4063529 -0.19078986
-0.55369306 -0.16672634 -0.009566317 -0.047877982 -0.31351388 0.04644811 -0.21549204 -0.08371663
-0.4073427 -0.17530647 -0.11849992 0.36675882 -0.5417874 -0.2191879 0.18912019 0.011301275
0.31196263 0.09618432 0.45887655 0.1487789 -0.33916637 -0.6171823 -0.19231707 0.063681185
-0.28544107 0.27279744 0.04382287 -0.54648864 -0.76894325 0.019424057 -0.74097806 -0.2912913
0.033298366 0.07485022 -0.011934135 -0.043246917 -0.020025996 -0.026230503 0.2852466 0.15156953
-0.71039444 0.672453 0.045518015 0.28575322 0.48947045 -0.39871314 -0.038456704 -0.030585451
-0.0074703726 0.11223018 -0.10014546 0.2282716 0.11749507 -0.5537236 -0.1004414 -0.013483423
0.4600062 -0.46362993 0.34427425 -0.87802833 0.03438402 0.24776335 -0.048779514 0.04983507
-0.6567504 -0.243477 0.26172084 -0.33794278 0.14326997 -0.07822267 0.014107665 -0.62961847
0.28288516 -0.21276827 -0.14931779 0.13649485 0.19167209 0.09779698 -0.5264052 0.060262863
-0.03104908 0.43160072 0.55308044 -0.58776563 0.24951115 -0.71531504 0.008845913 0.27049547
-0.014470487 -0.010527112 -0.12426722 -0.54946357 -0.43120393 0.2175219 0.21081944 0.3191638
-0.031027023 -0.028579107 -0.18850484 0.04559507 -0.81004053 0.3247073 -0.009091914 -0.18502283
-0.86579573 0.08625234 -0.60179013 0.26180148 0.20558809 -0.15548809 -0.37063855 0.07342142
-0.28480196 0.09260628 0.04499817 -0.22679633 0.38230982 0.12542328 0.16689104 -0.3395705
-0.0068646823 0.014040601 0.63262564 -0.7422733 0.16829942 0.1904793 0.09684879 -0.2768976
0.17719436 0.18111981 0.12062742 0.16640592 -0.38660294 0.20766081 -0.014537544 -0.022397054
-0.20422113 -0.37101507 0.0030667845 -0.14092201 0.14011744 0.2694698 -0.38408348 -0.11374068
-0.3026512 -0.22269738 0.27230218 -0.78405505 0.5102606 -0.5450885 -0.7301172 -0.28213722
0.39583018 -0.4293212 -0.00085025973 -0.5707499 0.41820782 -0.040683333 -0.026132287 -0.03295326
-0.25878772 -0.52624756 -0.59003615 0.063790426 -0.2089945 -0.261239 -0.15067524 -0.68321776
-0.3241124 -0.22147375 0.75274634 -0.26084423 0.048593223 0.03592199 0.061847217 0.13652097
-0.16796906 0.24337642 0.08580099 0.20453928 0.13728124 -0.6382974 -0.6143419 -0.65456414
-0.23658848 -0.5415385 -0.36159846 -0.3616519 -0.5918322 0.54370147 -0.13269071 -0.32591897
00000000: 7fce 0d3f b158 d4be 8500 053e c939 b53e
00000010: 3470 523e c8e0 65be d28c 81be 00f8 d33a
00000020: 80bd 703e 19fe ebbe 6672 563e df59 433e
00000030: ffe1 363f 6c17 b7be 2385 473d 20e1 e33c
00000040: c62d 903e 64ee e8bd dafa c93d 6811 4dbd
00000050: aa16 163f 0abc a93e 82c4 bbbe bdaa 1fbf
00000060: 6e91 febe e2e1 2b3e 4459 c03e 8ba0 ec3c
00000070: 1d2c c8bd 01d3 8f3e 7902 7ebf ab8f dd3e
00000080: b0db 60bd 121d cebe 1605 8abe 51d7 18bf
00000090: 8b93 c83d 65c1 1c3d 1c9c 003f 5324 d43e
000000a0: 2c0a a7be 58cc 73be 6001 4c3e 05fd 29bf
000000b0: c838 f4be 6cff a2be 4c8a 24bf 3427 d0bd
000000c0: 1de8 293e fb52 1ebd 0352 303e 20a3 fc3d
000000d0: ee4c 1b3f 8315 3dbf 54f2 273f 3d00 42bf
000000e0: 9cb9 f73d 4842 853e 530a 073d 3f17 a1bd
000000f0: cc88 693b cc9c 7a3e 7d0d d03e 6b5e 43be
00000100: d4be 0dbf 4fba 2abe 0bbc 1cbc b41b 44bd
00000110: e484 a0be 6040 3e3d f2a9 5cbe a073 abbd
00000120: 398f d0be 8a83 33be 16b0 f2bd d0c7 bb3e
00000130: 94b2 0abf cb72 60be b9a8 413e fc28 393c
00000140: 91b9 9f3e 49fc c43d def1 ea3e 7f59 183e
00000150: 37a7 adbe a9ff 1dbf c4ee 44be 486b 823d
00000160: 5525 92be 1bac 8b3e 9c7f 333d aee6 0bbf
00000170: 77d9 44bf 331f 9f3c bdb0 3dbf 2224 95be
00000180: de63 083d 124b 993d 6487 43bc ae23 31bd
00000190: 8f0d a4bc 5ae1 d6bc d80b 923e 0b35 1b3e
000001a0: 69dc 35bf e125 2c3f 1971 3a3d 3f4e 923e
000001b0: df9b fa3e 2124 ccbe c784 1dbd 578e fabc
000001c0: 07ca f4bb f0d8 e53d 1019 cdbd 08c0 693e
000001d0: 41a1 f03d d4c0 0dbf 39b4 cdbd 93e9 5cbc
000001e0: ef85 eb3e e760 edbe b744 b03e 77c6 60bf
000001f0: 42d6 0c3d adb5 7d3e 07cd 47bd dc1f 4c3d
00000200: cb20 28bf 0952 79be 4600 863e d606 adbe
00000210: 5db5 123e 3533 a0bd d623 673c ad2e 21bf
00000220: 53d6 903e eddf 59be c3e6 18be 4ec5 0b3e
00000230: b045 443e c849 c83d 7ec2 06bf 31d6 763d
00000240: a45a febc c5fa dc3e ae96 0d3f cf77 16bf
00000250: da7f 7f3e e31e 37bf 73ee 103c 627e 8a3e
00000260: 9f15 6dbc e879 2cbc d07f febd a5a9 0cbf
00000270: c3c6 dcbe 10be 5e3e 0de1 573e 7069 a33e
00000280: 622c febc bb1e eabc 6a07 41be e5c1 3a3d
00000290: d15e 4fbf 0940 a63e 40f6 14bc a076 3dbe
000002a0: caa4 5dbf 11a5 b03d eb0e 1abf d80a 863e
000002b0: af85 523e 4538 1fbe 56c4 bdbe f85d 963d
000002c0: 90d1 91be 5da8 bd3d 0050 383d 4c3d 68be
000002d0: 1dbe c33e f66e 003e 7ce5 2a3e 2fdc adbe
000002e0: 21f1 e0bb 8d0a 663c c1f3 213f 9f05 3ebf
000002f0: af56 2c3e 010d 433e a958 c63d 86c5 8dbe
00000300: 7072 353e 7977 393e 820b f73d 5066 2a3e
00000310: d2f0 c5be 09a5 543e e12e 6ebc 077a b7bc
00000320: 581f 51be b0f5 bdbe 1bfc 483b dc4d 10be
00000330: f27a 0f3e f2f7 893e 97a6 c4be e0f0 e8bd
00000340: 19f5 9abe c80a 64be 316b 8b3e d5b7 48bf
00000350: 70a0 023f ec8a 0bbf f6e8 3abf 4a74 90be
00000360: 41aa ca3e fdcf dbbe f7e3 5eba aa1c 12bf
00000370: 561f d63e 91a3 26bd 6113 d6bc fff9 06bd
00000380: d37f 84be 29b8 06bf 9c0c 17bf 8ea4 823d
00000390: a702 56be 1ec1 85be 9c4a 1abe 5ce7 2ebf
000003a0: 0ff2 a5be 04ca 62be fcb3 403f 608d 85be
000003b0: b009 473d f022 133d 8253 7d3d 27cc 0b3e
000003c0: 1500 2cbe ab37 793e 6eb8 af3d bf72 513e
000003d0: 7493 0c3e 7567 23bf 8345 1dbf 8491 27bf
000003e0: 4044 72be 44a2 0abf 6f23 b9be 702a b9be
000003f0: 5182 17bf 0530 0b3f 13e0 07be dade a6be

linear1.bias f4 [256]
0.15040024 0.3948998 -0.48286775 -0.31796247 -0.57679564 -0.8021323 -0.41459766 -0.16306438
-0.2042499 -0.19764148 0.4440267 0.1121941 -0.33592537 -0.5219427 0.10018386 -0.19647717
-0.5071701 -0.44866583 -0.27661273 -0.6039663 0.034416717 -0.51005524 -0.0033776457 -1.055591e-07
0.04489059 -0.6078423 -0.5725235 -0.62730235 -0.7644096 -0.066199966 -0.49682158 0.31982827
0.32932577 -1.7669539e-06 -0.7038422 -0.705784 -8.6403617e-07 -0.73351777 -1.3424548e-05 -0.40124017
-0.8232696 -0.0703326 -2.1052126e-07 -0.3802149 0.20046909 -0.092200525 -0.038976997 0.5795669
-0.21704096 -1.073052e-06 -2.266973e-08 0.07505139 -0.6866371 -0.66480154 -0.15423699 -0.0060613845
-0.22446038 -0.6356853 -0.23736899 0.0033295061 -0.054266285 0.03635876 -0.48291227 -0.0012735627
0.4795615 0.038333166 -0.28675807 -0.028225772 -0.566013 0.121685095 -0.6678211 -0.12053544
-0.8632068 -0.56438965 0.084845915 -0.5630398 -4.7887147e-06 -0.15135336 -0.44154721 -0.61668974
-2.7374114e-09 0.21666856 -0.13386844 -0.43135554 0.34770468 -0.6542556 -0.19620597 -0.64941686
0.35243532 -0.15179783 -0.71297073 -0.3533783 -0.04133117 -0.61326766 -0.71801764 -0.1938283
-0.048468385 -0.5755848 -0.41533792 -4.8113234e-06 -0.063978314 -0.00613696 -0.81929994 -0.07964784
-1.2254642e-05 0.09808973 -0.52447003 0.55898947 0.13955788 -5.1394635e-09 -0.035635557 -4.7805747e-06
-0.53710276 0.26494178 -3.718195e-05 -0.009546267 -0.5621298 -0.26167792 -0.29852712 -0.39675215
-0.49514747 -0.5820411 -0.3719429 -0.0022510418 -0.43833977 -0.59946346 -0.5701962 0.42771316
-0.33491597 -0.5450119 -0.6277003 -0.5571252 0.120850004 -0.43179604 -0.3082504 -0.2136868
-4.9757553e-08 -0.00052175496 -0.20152648 -0.91181445 -0.39664954 0.35639787 -0.019736283 -0.0150796175
-0.06307299 -0.43072334 -0.49755964 -0.01365113 -0.6938079 -0.13603425 -0.17918004 -0.109249294
-0.4882704 -0.5872963 -0.2266804 -0.01808456 -0.15747337 0.05536729 0.31201804 -0.55312234
0.12824449 0.39372742 -0.4817403 -0.7361337 0.0064089918 -0.04956359 -0.3436853 -8.780101e-08
-0.5794751 -0.04317213 -8.759424e-06 -0.46030506 -0.6310195 -0.51717216 -0.6233485 0.02154912
-0.51485103 -0.00052512786 -0.21941793 -0.79404354 -0.2422159 -0.64043844 -0.23188284 -0.10513585
-0.25042444 -1.1557433e-05 -0.39161563 -0.7561717 -0.28046328 -0.2981854 0.11627883 -0.008831607
-0.00078012294 0.34813607 -0.7385832 0.34996322 -0.3423235 0.19312783 -0.010184348 -0.47568896
-0.59929293 -0.6142432 0.49767265 0.23278224 -0.18061672 -0.46064568 -0.36537996 -0.7285226
-0.03663673 -0.35909662 -0.011237194 -0.40820295 0.21394011 0.3568155 -0.45902038 -0.5088373
-0.2976417 -0.64149714 -0.07863194 -0.055707887 -0.20285915 -0.3849378 -0.6678358 -0.17859274
-5.1437887e-06 -0.5422485 -1.4764052e-05 -0.4401253 -0.42579603 -0.0153261 -0.49756986 -0.3099307
0.12356611 -0.16456763 -3.2969833e-06 -0.7703205 -0.010513019 -0.14716277 -4.5483782e-07 -0.13782774
0.5314786 -0.28841758 -0.49098027 0.03286871 -0.8139856 -0.33088925 -0.2221708 -0.00040780962
-0.32391167 0.28219408 0.009636933 -0.818969 -0.34173945 -0.096809566 0.3498441 -0.043745477
00000000: 8502 1a3e 4e30 ca3e 713a f7be facb a2be
00000010: e1a8 13bf 8b58 4dbf 2546 d4be 59fa 26be
00000020: e326 51be 8762 4abe 7857 e33e 05c6 e53d
00000030: 69fe abbe 099e 05bf 322d cd3d 5031 49be
00000040: e6d5 01bf 87b7 e5be 2fa0 8dbe 899d 1abf
00000050: 8bf8 0c3d fb92 02bf 7e5b 5dbb bbaf e2b3
00000060: 32df 373d 8e9b 1bbf e690 12bf e396 20bf
00000070: 59b0 43bf d993 87bd 665f febe 88c0 a33e
00000080: 639d a83e 1328 edb5 012f 34bf 43ae 34bf
00000090: 1df0 67b5 d2c7 3bbf ff39 61b7 5a6f cdbe
000000a0: ccc1 52bf 8a0a 90bd a50b 62b4 87ab c2be
000000b0: c547 4d3e a1d3 bcbd 58a6 1fbd 7f5e 143f
000000c0: fc3f 5ebe c905 90b5 43bb c2b2 8bb4 993d
000000d0: 73c7 2fbf 6f30 2abf 4df0 1dbe 949e c6bb
000000e0: f1d8 65be 46bc 22bf db10 73be d833 5a3b
000000f0: 5346 5ebd ecec 143d 4740 f7be aced a6ba
00000100: 1689 f53e 3d03 1d3d f4d1 92be bc39 e7bc
00000110: 3ae6 10bf 0936 f93d 53f6 2abf 49db f6bd
00000120: 1ffb 5cbf d77b 10bf b2c3 ad3d 6023 10bf
00000130: bfae a0b6 60fc 1abe 7a12 e2be 61df 1dbf
00000140: 0d1d 3cb1 5dde 5d3e cf14 09be a2da dcbe
00000150: 5906 b23e 4c7d 27bf 38ea 48be 2f40 26bf
00000160: 6772 b43e e470 1bbe 4085 36bf 00ee b4be
00000170: df4a 29bd 1cff 1cbf 01d0 37bf ed7a 46be
00000180: c986 46bd 8759 13bf 2ca7 d4be f470 a1b6
00000190: 1007 83bd 8d18 c9bb a4bd 51bf 681e a3bd
000001a0: 4999 4db7 45e3 c83d ab43 06bf ef19 0f3f
000001b0: 43e8 0e3e 3397 b0b1 97f6 11bd d368 a0b6
000001c0: 917f 09bf 73a6 873e d1f3 1bb8 f267 1cbc
000001d0: bde7 0fbf a6fa 85be 8cd8 98be 1923 cbbe
000001e0: f883 fdbe a500 15bf 4d6f bebe 3786 13bb
000001f0: 126e e0be 7076 19bf 61f8 11bf 38fd da3e
00000200: 1b7a abbe e685 0bbf f8b0 20bf c29f 0ebf
00000210: 3580 f73d 5f14 ddbe ffd2 9dbe b6d0 5abe
00000220: 02b5 55b3 62c6 08ba f55c 4ebe ac6c 69bf
00000230: a615 cbbe c879 b63e fcad a1bc 8010 77bc
00000240: 692c 81bd c587 dcbe 23c0 febe fda8 5fbc
00000250: 659d 31bf 904c 0bbe f97a 37be 18be dfbd
00000260: 94fe f9be 0d59 16bf e81e 68be 1226 94bc
00000270: b340 21be d0c8 623d d4c0 9f3e 6d99 0dbf
00000280: 8652 033e a496 c93e aaa6 f6be 4273 3cbf
00000290: 8502 d23b 3103 4bbd 85f7 afbe 1e8d bcb3
000002a0: 7b58 14bf 42d5 30bd 71f5 12b7 1bad ebbe
000002b0: 7e8a 21bf 6565 04bf c493 1fbf c887 b03c
000002c0: 47cd 03bf bca8 09ba 18af 60be 7046 4bbf
000002d0: 7207 78be c6f3 23bf b272 6dbe 7751 d7bd
000002e0: a237 80be cce6 41b7 d881 c8be 7894 41bf
000002f0: e298 8fbe c2ab 98be 9823 ee3d 72b2 10bc
00000300: 2a81 4cba e43e b23e ca13 3dbf 612e b33e
00000310: 0745 afbe 4dc3 453e 40dc 26bc 818d f3be
00000320: 436b 19bf 0b3f 1dbf f3ce fe3e 785e 6e3e
00000330: 97f3 38be c0d9 ebbe 1513 bbbe 7580 3abf
00000340: 6510 16bd 83db b7be 351c 38bc faff d0be
00000350: 1e13 5b3e 85b0 b63e b804 ebbe 2943 02bf
00000360: 7e64 98be 2839 24bf c809 a1bd f42d 64bd
00000370: 4fba 4fbe 9116 c5be 49f7 2abf 04e1 36be
00000380: cf98 acb6 ccd0 0abf 1fb3 77b7 1a58 e1be
00000390: f001 dabe 531a 7bbc 7ac1 febe 3daf 9ebe
000003a0: 3b10 fd3d 6b84 28be be41 5db6 b933 45bf
000003b0: cc3e 2cbc d6b1 16be 6f30 f4b4 b722 0dbe
000003c0: fb0e 083f 78ab 93be c461 fbbe 57a1 063d
000003d0: 5c61 50bf 516a a9be be80 63be 48cf d5b9
000003e0: c0d7 a5be be7b 903e 3ae4 1d3c f4a7 51bf
000003f0: 79f8 aebe 1844 c6bd c41e b33e 752e 33bd

linear2.weight f4 [3, 256]
-0.09743412 0.083206095 -0.044229344 0.030412495 0.05082617 0.00013473735 -0.07034558 -0.00096516317
0.005686457 -3.3368313e-05 0.08526803 0.014470802 8.080573e-05 -0.12699336 0.07546839 -0.16088915
0.026536815 -0.028174832 -0.0029831254 0.040766258 0.010863928 0.013184294 0.034856822 1.9592107e-07
0.022986323 -0.054989822 0.2939923 0.31548825 0.0016503497 -0.00018912576 -4.486158e-05 0.041681424
0.08159454 -3.2195737e-07 -0.029589929 -0.062118486 -9.2182654e-07 -8.352683e-09 -1.1969967e-05 2.6284524e-05
0.0006267767 0.039536033 -4.801983e-07 -0.011136122 0.09537434 -0.0019714946 -9.312146e-05 0.09257931
6.9465925e-05 -5.350155e-07 -9.258352e-09 0.0570668 -0.18884109 0.00020145462 -0.043510526 -0.00016826244
3.68938e-09 0.008948386 -0.0031220368 -0.0014117665 -0.05929316 0.0973719 0.0027997985 0.028772695
0.09776123 -0.02015583 -3.7684727e-05 -3.1186508e-05 -2.5887222e-05 0.037686016 -0.013777681 8.581018e-06
7.26074e-06 0.1635765 0.15907875 -0.0010715973 -1.9072157e-06 0.059462726 -0.00037665936 0.13659424
8.6751467e-10 0.022504438 -0.14638104 -0.01261092 -0.09067962 -0.045294747 -0.006408666 0.043418273
0.043653335 -0.028997995 -0.110184304 0.062077284 0.004484048 0.37092155 -0.00010872645 -4.578149e-05
0.045929857 0.0003451507 7.820911e-06 1.2015754e-06 0.051242463 -3.132463e-07 -1.0747672e-05 0.054371566
-1.2010266e-05 0.1524338 0.28801167 0.10142614 -0.03936185 -5.6889182e-09 0.018779635 -2.0794414e-06
-0.007410601 -0.09869701 -2.8488317e-05 -0.0028663536 0.03872823 -0.16432261 -0.030042298 9.2604006e-07
-0.00031435574 -0.00024154193 0.06156926 0.0035972304 -0.0058835447 0.056256555 -0.12931406 0.028092017
0.04290825 0.019866548 -0.042841367 0.012690976 -0.023188611 -0.14059407 -0.07069301 0.04066521
-5.2349197e-08 0.0034172742 -0.06512202 7.057972e-05 0.060388505 0.022485666 0.00012282266 0.032892995
3.0531522e-05 -0.1221945 -0.032152116 -0.11994069 -0.00093996525 -0.05534429 -0.13997994 0.032448135
7.087541e-08 -4.555158e-05 -0.037707273 1.2241061e-05 -0.13668925 0.0072739297 0.08072832 0.0140597
-0.019019993 -0.028882962 -0.17219333 0.090080425 -0.0022212653 -0.0067582997 -0.0001863361 -5.9325416e-08
-0.22937034 -0.0873274 3.2541848e-06 0.3720653 -0.06183749 -0.21455602 0.035915583 -0.0044866563
-1.1440807e-05 3.4927874e-05 0.041191988 -4.9572573e-05 0.0018721372 0.054418147 -0.06226568 0.017292578
-2.5478482e-07 2.607279e-06 0.00020470955 -0.053930916 7.233321e-06 0.0017294362 0.039023492 0.004490858
0.00014364003 -0.0036169633 -0.17714703 0.08805136 -0.042976312 -0.07667219 -0.00084392726 0.03741895
-0.033708386 0.013545014 0.09395414 0.066836536 -0.16123609 0.05192919 0.046103306 -0.00018887331
0.0006268451 6.393675e-08 0.05576997 -0.20514625 0.0070552644 0.023783779 -5.849239e-06 2.7400623e-05
0.08827828 -0.004753493 9.563544e-05 0.00011786533 0.16486208 0.29654709 0.01710612 -0.003027097
-2.1531496e-05 -0.0013448689 7.510651e-06 -0.008626282 -0.03416101 -0.00014011149 0.059523292 -0.014163278
-0.09962809 6.0462585e-06 1.4265537e-06 0.21428572 -3.5375284e-05 0.0002019424 -5.605722e-07 -3.5863697e-05
0.054132838 4.1055507e-08 -0.017926209 -0.14059766 -1.4193664e-06 0.18446079 -0.061020628 -0.00013548427
-0.0010446153 0.054298732 0.052448265 -1.546435e-07 -0.014136732 -0.11497559 -0.020960296 -0.09206549
00000000: 8a8b c7bd f567 aa3d d429 35bd a023 f93c
00000010: 1a2f 503d 4848 0d39 5811 90bd 0103 7dba
00000020: 7555 ba3b f4f4 0bb8 01a1 ae3d f116 6d3c
00000030: 3f76 a938 8c0a 02be 2c8f 9a3d 20c0 24be
00000040: bc63 d93c e8ce e6bc 8a80 43bb 85fa 263d
00000050: 9efe 313c f002 583c 07c6 0e3d 605e 5234
00000060: d04d bc3c 023d 61bd 2986 963e ad87 a13e
00000070: 8c50 d83a 0f50 46b9 c129 3cb8 24ba 2a3d
00000080: 0a1b a73d 7cd9 acb4 9466 f2bc f46f 7ebd
00000090: 7073 77b5 7d7f 0fb2 9ed2 48b7 967d dc37
000000a0: 464e 243a 89f0 213d fae6 00b5 4874 36bc
000000b0: 9f53 c33d 3134 01bb 344a c3b8 399a bd3d
000000c0: 3cae 9138 fc9d 0fb5 aa0e 1fb2 e0be 693d
000000d0: 8f5f 41be 903d 5339 1838 32bd 9b6f 30b9
000000e0: 4288 7d31 409c 123c 169b 4cbb 060b b9ba
000000f0: 62dd 72bd eb6a c73d d37c 373b b7b4 eb3c
00000100: 0a37 c83d d71d a5bc ab0f 1eb8 42ce 02b8
00000110: 6328 d9b7 a75c 1a3d c8bb 61bc 31f7 0f37
00000120: 48a1 f336 9980 273e 8ae5 223e d774 8cba
00000130: 6ffb ffb5 308f 733d 5d7a c5b9 5cdf 0b3e
00000140: eb75 6e30 3a5b b83c e9e4 15be 089e 4ebc
00000150: 3db6 b9bd fc86 39bd c9ff d1bb 5cd7 313d
00000160: d7cd 323d 348d edbc 4fa8 e1bd c044 7e3d
00000170: ecee 923b 6ee9 bd3e 1204 e4b8 8005 40b8
00000180: f220 3c3d 58f5 b439 8f36 0337 d145 a135
00000190: 9ee3 513d 3e2c a8b4 e650 34b7 b8b4 5e3d
000001a0: b37f 49b7 9b17 1c3e 4476 933e 82b8 cf3d
000001b0: e439 21bd 4178 c3b1 c0d7 993c 888c 0bb6
000001c0: a0d4 f2bb a821 cabd 32fa eeb7 6fd9 3bbb
000001d0: 7ea1 1e3d 3044 28be 441b f6bc fd94 7835
000001e0: 1dd0 a4b9 6b46 7db9 0c30 7c3d 83bf 6b3b
000001f0: c0ca c0bb 466d 663d e86a 04be 3b21 e63c
00000200: 90c0 2f3d 2cbf a23c 6e7a 2fbd d0ed 4f3c
00000210: 0bf6 bdbc e4f7 0fbe 7fc7 90bd 9090 263d
00000220: 8dd6 60b3 59f4 5f3b b25e 85bd 3304 9438
00000230: f059 773d dc33 b83c f5c9 0039 ceba 063d
00000240: f90e 0038 1c41 fabd f0b1 03bd 77a3 f5bd
00000250: 0068 76ba b2b0 62bd e756 0fbe 56e8 043d
00000260: 2b34 9833 a30e 3fb8 f172 1abd f55e 4d37
00000270: 44f8 0bbe 255a ee3b e454 a53d a85a 663c
00000280: d1cf 9bbc f69b ecbc 7353 30be 167c b83d
00000290: a692 11bb ba74 ddbb 3763 43b9 fccc 7eb3
000002a0: 0fe0 6abe b5d8 b2bd 7862 5a36 587f be3e
000002b0: 4f49 7dbd 93b4 5bbe 381c 133d cd04 93bb
000002c0: e4f1 3fb7 857f 1238 eeb8 283d 25ec 4fb8
000002d0: 8062 f53a 90e5 5e3d 4c0a 7fbd 2aa9 8d3c
000002e0: 5cc9 88b4 b6f8 2e36 4da7 5639 aae6 5cbd
000002f0: c1b5 f236 40ae e23a 19d7 1f3d 0c28 933b
00000300: 149e 1639 930a 6dbb 0866 35be 4554 b43d
00000310: ee07 30bd 4f06 9dbd 003b 5dba 9d44 193d
00000320: ce11 0abd e8eb 5d3c 076b c03d 98e1 883d
00000330: 131b 25be b4b3 543d d2d6 3c3d 4b0c 46b9
00000340: dd52 243a 9a4d 8933 0d6f 643d dc11 52be
00000350: d92f e73b 33d6 c23c 9544 c4b6 64da e537
00000360: 3ecb b43d 30c3 9bbb e38f c838 782e f738
00000370: 9bd1 283e 05d5 973e 2222 8c3c 4362 46bb
00000380: 899e b4b7 5046 b0ba 0004 fc36 4055 0dbc
00000390: 6aec 0bbd e4ea 12b9 b2ce 733d 180d 68bc
000003a0: d009 ccbd f7e0 ca36 0378 bf35 b76d 5b3e
000003b0: ec5f 14b8 80c0 5339 3a7a 16b5 5a6c 16b8
000003c0: 65ba 5d3d 0255 3033 fcd9 92bc d5f8 0fbe
000003d0: 0f81 beb5 4ae3 3c3e c4f0 79bd c810 0eb9
000003e0: 79eb 88ba 5968 5e3d fed3 563d 150c 26b4
000003f0: c09d 67bc 5278 ebbd edb4 abbc d58c bcbd

linear2.bias f4 [3]
0.109566756 0.014354047 -0.08813765
00000000: 8964 e03d 3d2d 6b3c 8381 b4bd
