model/model.pth (torch, 8000 bytes, 4 tensors)

linear1.weight f4 [256, 2]
000000 e0 cd 00 3f a4 42 26 3f 99 41 00 3f dd 5e 04 3f
       0.5031414 0.64945436 0.50100094 0.5170725
000010 b6 6f 51 be 50 77 26 3e 08 25 af be 3b 85 83 be
       -0.2045277 0.16256452 -0.3420794 -0.25687584
000020 e7 41 20 3f ad 7b e5 3e fc 78 07 3e e2 48 23 bf
       0.6260056 0.4482092 0.13229746 -0.63783085
000030 55 5a f7 3e 3b f4 8f 3e e6 a2 0d be 06 8c 3f 3e
       0.48311105 0.2811602 -0.13831672 0.18705758
000040 91 4c 93 be ae 0e 81 be 86 d4 08 bf 18 be d7 3e
       -0.28769353 -0.25206512 -0.53449285 0.42137218
000050 16 aa fd 3e 4f 67 d0 bd 5a 98 0a 3f 96 27 29 3f
       0.49543828 -0.101759546 0.5413872 0.6607603
000060 82 ee 95 3d 9d 3b 0b 3e 1e ef 0c 3e 74 fa ec 3e
       0.073208824 0.1359696 0.13763091 0.4628483
000070 1d 36 ad 3e 14 28 2f bf a8 82 c9 3d a8 99 16 bf
       0.33830348 -0.6842053 0.09839374 -0.5882821
000080 63 90 4c be ea 6f 10 3f 20 51 cc 3e 73 77 31 3f
       -0.19976954 0.5642077 0.39905643 0.6932289
000090 0a 63 ee 3e 03 21 1b bf 80 a0 f5 3e 46 0b 05 3f
       0.46559936 -0.60597247 0.47974014 0.51970327
0000a0 10 ef 19 3e 08 bb 08 bf d9 2f e0 be e8 73 4d 3e
       0.15032601 -0.5341039 -0.43786505 0.20063746
0000b0 15 d2 9a 3e de d7 0e 3f 01 01 34 bf 50 8e 3e 3d
       0.30238405 0.5579814 -0.7031403 0.04652244
0000c0 5e 05 ea be 5b d2 d2 be 3e fc 10 3f f1 e3 79 be
       -0.4570722 -0.41176113 0.5663489 -0.24403359
0000d0 6f ae c9 3e 7f bb 9e 3e c8 34 07 be 11 ff 0c bf
       0.39390895 0.31002423 -0.13203728 -0.550767
0000e0 26 d4 de 3e 90 8d 9a be 00 48 55 3e 5e 24 b6 be
       0.4352123 -0.3018613 0.20828247 -0.3557462
0000f0 d9 42 81 3d b7 f7 33 3f ec 43 e1 3e 6e 25 0a bf
       0.06311578 0.7029986 0.43997133 -0.53963363
000100 28 3d 9d bd b4 9a 7d 3e c2 cb 21 3f 76 82 14 3f
       -0.0767768 0.24766046 0.63201535 0.5801157
000110 55 cc 26 bf da e1 f3 3e ce ce 85 3e fa 7a 12 3f
       -0.65155536 0.4763325 0.26134342 0.572189
000120 20 2b 3c be d6 df ca 3e f4 c2 1c 3e bd db aa 3e
       -0.18375826 0.39623898 0.15308744 0.33370772
000130 db c2 23 be 71 95 e8 3e 7a af 0f 3c 3d 4b c0 3e
       -0.159923 0.45426515 0.008769864 0.37557402
000140 bc d1 b5 be d8 07 57 3e 90 02 0c 3f 16 b2 9c 3d
       -0.35511577 0.20999086 0.5469141 0.07651155
000150 38 36 09 3d ba 83 e2 bd aa 9d 5a be 66 38 15 bf
       0.033498973 -0.11060281 -0.21349207 -0.5828918
000160 a0 81 db 3e c2 a1 0e 3f 50 c2 bd be 47 52 c8 be
       0.42872334 0.5571557 -0.3706231 -0.39125273
000170 ea f2 ea 3d 7e 2b 0f 3f 9d 65 eb 3e 36 4a 02 bf
       0.114721134 0.5592574 0.45975962 -0.50894487
000180 fd 5b 31 bf f9 93 df be 01 f8 cf be 16 58 f9 be
       -0.6928099 -0.43667582 -0.406189 -0.48700017
000190 f6 4d 98 be 31 4d 1e 3f 37 f9 7a 3e af 5a a1 3e
       -0.2974698 0.61836535 0.2450913 0.315145
0001a0 43 71 a7 be 4d fd 31 3f 6c 31 33 3f d2 0f 24 bf
       -0.327036 0.6952713 0.69997287 -0.6408664
0001b0 43 5e 60 3e 67 6c 2b 3f 3b 58 14 bd 22 44 b7 3e
       0.21910958 0.66962284 -0.036216956 0.3579417
0001c0 36 26 6d 3e 59 4c 7f 3e ff ea 32 bf b0 66 0b bf
       0.23159108 0.24931468 -0.69889826 -0.54453564
0001d0 60 59 59 bd c0 83 76 bc c0 9d 42 3e fa 0c 32 bf
       -0.05306375 -0.01504606 0.1900549 -0.6955105
0001e0 5b 07 0e 3f ad 54 12 bf dd 28 81 be 0a b3 03 bf
       0.55479974 -0.57160455 -0.2522649 -0.51445067
0001f0 d4 c2 3d be b7 f1 f7 be 9c 8f dc bd e0 44 70 3c
       -0.18531352 -0.484266 -0.10769579 0.014664859
000200 62 a6 31 bf 99 56 b8 3e 50 95 68 bd 68 1c 0e be
       -0.69394505 0.3600357 -0.05678302 -0.13878024
000210 55 c2 2f 3f 57 cb 1a bf 00 e0 ce bc 14 39 60 3e
       0.686559 -0.6046652 -0.025253296 0.21896774
000220 d5 76 06 3f b1 c4 5d 3e 5e 42 1f bf 80 ea 02 bd
       0.52525073 0.21657063 -0.62210643 -0.031961918
000230 ce 81 d8 3d 80 23 79 3e e9 20 5f 3e e1 90 0a bd
       0.10571633 0.24329948 0.21789898 -0.033829574
000240 28 a1 b4 3e 99 0c cf bd c4 30 03 bf 1f 62 0b bf
       0.35279202 -0.10109825 -0.51246285 -0.54446596
000250 fc 41 13 3e dd 42 d4 3d ef 10 94 be be 1a 94 3e
       0.1438064 0.10364316 -0.2891917 0.28926653
000260 0b f0 b8 3c bc be ef 3e 74 3e 6a be 8e b2 c8 be
       0.022575399 0.46825206 -0.22875386 -0.39198726
000270 a0 57 75 bd 0e 2a 86 be b3 e5 9a bd 1b 34 37 3e
       -0.05989802 -0.2620396 -0.07563343 0.1789097
000280 0d d6 88 3e 90 a1 21 bf 7e 97 7d be aa 88 65 be
       0.26725808 -0.6313715 -0.24764821 -0.22415414
000290 62 dd bf 3e 9c 1a c9 be 20 64 2c be 16 fa ed be
       0.3747359 -0.39278114 -0.1683507 -0.46479863
0002a0 0d 32 ae 3e f7 42 0d 3d fe 24 7a 3e 18 0d f4 3e
       0.3402256 0.03448769 0.24428174 0.4766624
0002b0 bc d5 15 be 06 74 20 bf 21 c9 7e bd d9 06 87 3e
       -0.14632314 -0.6267704 -0.06220353 0.26372412
0002c0 60 fe 07 be 1a 8d 15 bf a6 3e 15 3f a3 49 b6 3e
       -0.1328063 -0.5841843 0.5829872 0.35603055
0002d0 a0 63 be 3c 07 c4 c9 be 80 50 6e 3c 80 26 9c bc
       0.023240864 -0.3940737 0.01454556 -0.019061327
0002e0 1b be b2 3e b9 13 33 3e f7 03 0d bf 10 13 de 3d
       0.34910664 0.17487992 -0.55084175 0.1084348
0002f0 2a 6f ec 3e 92 da 1e bf 6e de 88 3d 34 aa 97 3e
       0.4617856 -0.6205226 0.0668305 0.29622042
000300 d0 c0 64 3e 35 cb 86 be 85 44 a7 be 6d 0a 16 3f
       0.22339177 -0.2632691 -0.32669464 0.5860966
000310 7a fb a1 3e f4 aa 05 be 52 3c 89 3e ae 0c ad 3e
       0.31637174 -0.13053495 0.26803833 0.33798736
000320 5a 6a f5 3e df 39 0a bf b4 63 3d 3e 1f 8d 1a bf
       0.47932702 -0.53994554 0.18495065 -0.60371584
000330 12 eb 11 3f 76 8c 11 be 60 a4 d0 bd c0 97 f3 3c
       0.56999314 -0.14213738 -0.10187602 0.029735446
000340 07 84 e2 3e 33 73 2c be c6 f2 9f be c0 43 ec bc
       0.44241354 -0.1684082 -0.3123991 -0.0288409
000350 10 2c 41 3d 00 7a a6 3a 2e 5f d3 3e b4 20 b5 be
       0.047161162 0.0012701154 0.41283554 -0.35376513
000360 7e b5 85 be 88 86 8c bd 28 9d 36 3f 62 bb 8c bd
       -0.2611503 -0.06861597 0.7133355 -0.06871678
000370 ee 1f 1b 3f 77 3d 48 3e 6b d3 b4 3e 74 31 a7 be
       0.60595596 0.19554697 0.3531755 -0.32654917
000380 6b 17 90 be 21 6f 15 bf f4 4f 09 3f 71 ad 48 3d
       -0.28142866 -0.58372694 0.53637624 0.04899353
000390 ca 0c 53 3e b4 9e d5 3e 4b c0 44 3e b8 f4 b4 bc
       0.20610347 0.41722643 0.19213979 -0.022089347
0003a0 f4 aa 21 bf 98 3a 57 3e cf 5a ce be d0 b0 f4 be
       -0.6315148 0.21018445 -0.40303656 -0.47791147
0003b0 7a 46 5d 3e 0e 3c ca 3e 5f af b6 3e 6a 7d ac 3d
       0.21608916 0.39498943 0.35680673 0.08422358
0003c0 b0 86 4d be b8 f3 e6 bd ac 3e 0b be a3 47 be be
       -0.2007091 -0.112769544 -0.13598126 -0.3716403
0003d0 a1 e5 9b 3d 2b 67 4f be 79 c5 24 3f 75 a4 30 3f
       0.076121576 -0.20254199 0.6436382 0.6900094
0003e0 e2 8f b3 be 32 97 15 bf 3f f4 13 3f a6 67 81 3e
       -0.3507071 -0.5843383 0.57794565 0.2527439
0003f0 57 8d c0 be a6 14 a7 3e 09 26 0c bf 9c 0f 1d be
       -0.37607834 0.3263294 -0.5474554 -0.15337986

linear1.bias f4 [256]
000000 18 a6 e7 3e be bc 15 3e 41 fd 8a 3e 71 9b 5e 3c
       0.45243907 0.1462278 0.27146342 0.013586865
000010 51 a3 8a be 00 d9 cf be 86 ed 00 be 7e 19 bc bd
       -0.27077726 -0.40595245 -0.12590608 -0.0918455
000020 89 0f 03 3d af dd fe 3e 98 53 09 3f e5 9c f2 3e
       0.031997237 0.49778506 0.5364318 0.47385326
000030 ea d8 cc 3e 15 83 53 3e d7 cc 16 3f e8 76 a2 bd
       0.40009242 0.20655473 0.5890631 -0.07932836
000040 a9 55 8f be ef b2 c6 bd 47 be 0b bf 02 db e7 be
       -0.2799504 -0.097020976 -0.54587215 -0.45284277
000050 67 09 b3 3e 44 d4 0a be 7e 09 d8 3d bf 21 1a bf
       0.3496811 -0.13557535 0.105486855 -0.6020774
000060 d4 2d e0 3e 5c 35 30 3f 1a 5a 14 3f 74 ba 50 be
       0.43784964 0.6883142 0.57949984 -0.20383626
000070 ea 88 a2 be bb 0a 02 bf 2a 14 1b 3e b6 af 48 3e
       -0.31745082 -0.50797623 0.1514441 0.19598278
000080 bd d0 16 bf f9 d6 33 bc 04 16 cb be be ec f8 bd
       -0.5891226 -0.010976546 -0.39665234 -0.1215453
000090 4e de 25 bf dd bb 1a bf 53 4c 37 be 2d 15 c6 3b
       -0.64792335 -0.60442907 -0.17900209 0.006045005
0000a0 be d9 75 be 97 53 32 3f c3 c8 d5 3e d0 5b 88 3e
       -0.24008843 0.696588 0.41754732 0.26632547
0000b0 1b 45 e5 be a2 91 27 bf 17 f5 40 3e e4 7d a5 3d
       -0.44779286 -0.65456593 0.18843494 0.08080652
0000c0 1a a9 eb be 52 3c 09 3f 02 18 09 3f 24 6f bf be
       -0.46027452 0.53607666 0.5355226 -0.3738948
0000d0 db d9 09 3f 7b b3 00 3e 25 6e a9 bb 13 05 29 bf
       0.53848046 0.12568466 -0.005170601 -0.6602337
0000e0 34 2f ef be c2 7d 69 3e ec 09 1b be 80 83 73 bc
       -0.467157 0.22801879 -0.15140504 -0.014862895
0000f0 8b c6 90 3e f4 57 44 be 04 a8 05 3f 73 aa ef 3e
       0.28276476 -0.19174176 0.52209496 0.4680973
000100 0f 1e 34 3f 6a 5b 1a bf 0e 8b 2b bf 9c 70 12 bf
       0.70358366 -0.60295737 -0.67009056 -0.5720308
000110 86 50 a5 3e 2d 50 a8 3e cf d0 11 3f 47 17 46 3e
       0.32287997 0.3287367 0.5695924 0.19344817
000120 a2 47 81 bd 9d 37 2f 3f aa 68 76 be a1 f3 31 bf
       -0.06312491 0.68444234 -0.24063364 -0.69512373
000130 33 e8 9a 3d 0b 65 97 3e 06 ce ca 3d 23 4d 23 3d
       0.0756382 0.29569277 0.09902577 0.039868485
000140 78 f4 d6 3e 93 bd a9 3e a8 33 23 bf 81 7a 83 3e
       0.4198339 0.33152446 -0.63750696 0.256794
000150 13 51 d1 be 26 27 b0 3e 84 01 5d be fb ce 76 be
       -0.40882167 0.34404868 -0.2158261 -0.24102394
000160 c9 87 8c 3e 20 04 f6 be 72 8c cb be 4a 48 c6 be
       0.27447346 -0.48050022 -0.3975559 -0.38727027
000170 7e 97 aa bd b4 90 2a be 68 b0 8d bd 7f 59 9a be
       -0.08329676 -0.16656762 -0.069184124 -0.30146405
000180 65 1f 94 be 81 5a 1e bf 42 df ce be 2f e6 59 bd
       -0.28930202 -0.6185685 -0.40404707 -0.053198036
000190 4c 79 a1 be ab f6 94 3e c7 19 ef be 50 a3 09 bf
       -0.31537855 0.29094443 -0.46699354 -0.5376482
0001a0 f9 72 0d be 40 ee 4d bd f2 08 6c be 28 3f 08 bf
       -0.1381339 -0.05027604 -0.23050287 -0.5322137
0001b0 08 94 fe 3d 47 28 6a 3e fd f7 1d bf 36 a0 18 3e
       0.124305785 0.22866927 -0.61706525 0.14904866
0001c0 11 4e e8 be 79 ed 09 be 51 24 ad 3d 14 3e 0e 3f
       -0.4537206 -0.13469495 0.084541924 0.55563474
0001d0 29 01 81 3e 36 cf 0f bf 3f 76 e0 be f0 03 cc 3d
       0.25196198 -0.56175554 -0.43840215 0.099616885
0001e0 8f ed 82 be 60 4b f4 bc 49 97 00 3e c8 33 91 3e
       -0.25571868 -0.029821098 0.1255771 0.28359818
0001f0 b0 b5 3d be f5 ec 13 3e 24 18 21 be a6 35 19 bf
       -0.1852634 0.1444586 -0.15731865 -0.59847486
000200 4f e0 22 3f e0 ef a1 3e 1d 2e 58 3d 4e 58 b6 3e
       0.6362352 0.31628323 0.052778352 0.35614246
000210 89 b1 12 3f 53 a9 d1 bd f4 a0 c5 be 06 c4 ee be
       0.5730215 -0.10237374 -0.3859936 -0.4663393
000220 c4 3c 06 be 4b 89 2a 3f 6b c0 a9 3d 35 9a 0a 3f
       -0.13109118 0.6661574 0.08288654 0.5414155
000230 2f 5a b5 3e 42 3d 2b bf 5f 73 0e 3f 95 11 d4 be
       0.35420367 -0.66890347 0.5564479 -0.41419664
000240 26 0c 5e be 1c 56 0d bf 0b 84 8a bd 4c 30 28 3f
       -0.21684322 -0.5520952 -0.067634664 0.65698695
000250 f5 73 03 bb bc f7 1a 3f d7 cd f7 be f6 7c 2d 3f
       -0.002005813 0.6053426 -0.4839923 0.677688
000260 b1 4d 8c be 3c 3d f7 be 5b d3 42 3e 69 fb aa be
       -0.27403024 -0.48288906 0.19025938 -0.33394936
000270 d0 cc 09 3f a0 e5 52 bd 13 d3 c4 be 15 66 49 3e
       0.53828144 -0.05148852 -0.38442287 0.19667847
000280 87 ac 20 3f 8e 73 88 be ee ed 0a 3f f9 70 20 3f
       0.62763256 -0.2665066 0.542693 0.6267238
000290 42 12 be 3d c8 47 32 be a9 7c 6c 3e 31 89 ed 3e
       0.09280826 -0.17410195 0.23094429 0.4639373
0002a0 3e 72 23 3f 0e 96 0e 3f d8 ba 79 be bd e8 16 bf
       0.63846195 0.55697715 -0.24387681 -0.5894888
0002b0 8f 1e 14 3f 58 49 bf bc 28 d5 55 be c7 1a 48 3e
       0.5785913 -0.023350403 -0.20882094 0.19541465
0002c0 54 9d f2 be 9a 90 46 3c f2 29 18 3f e9 47 26 3f
       -0.47385657 0.012119437 0.59439003 0.64953476
0002d0 55 18 81 3e 45 18 94 3d 5d bf 3e 3e ad c9 2b bf
       0.25213876 0.072311915 0.18627687 -0.6710461
0002e0 d3 85 e1 be 3e 4b 2d 3f 86 94 f7 3b 1f fb d5 be
       -0.44047412 0.67692935 0.007555547 -0.41793153
0002f0 14 0f 4c be 75 5e db 3e 4b dd b3 3e 10 f7 32 bf
       -0.19927627 0.42845502 0.3512977 -0.6990824
000300 44 d9 f9 3d 82 2f 67 be 2d 81 91 3d 75 36 10 be
       0.12199643 -0.22576717 0.071047164 -0.14083274
000310 1e 9f d4 3e 49 97 ef 3d 4a c3 15 bf 20 0d a2 be
       0.41527647 0.11698777 -0.5850111 -0.3165064
000320 a2 18 a0 3e 48 e0 25 bf 43 d2 3f 3c 5c 2c 1c bf
       0.31268793 -0.6479535 0.011707845 -0.6100519
000330 64 f1 12 be c0 31 fc 3d b9 59 0f bf 25 c7 09 3f
       -0.14349896 0.123141766 -0.5599628 0.53819495
000340 1f e9 e1 3e f8 3c 85 3e 23 02 18 3e 66 d7 0a 3f
       0.4412317 0.26023078 0.14844565 0.5423492
000350 89 ff 06 bf 62 39 f9 be cb ae 65 be 18 bf cb 3e
       -0.52733666 -0.48676592 -0.2242996 0.3979423
000360 84 81 bb 3e 1d 56 d8 3e d3 06 04 3f c2 98 a2 3d
       0.3662225 0.422532 0.5157291 0.079392925
000370 c2 ff 83 be 78 46 2c bf b6 10 aa bd c0 2a b1 bc
       -0.25781065 -0.67295027 -0.083039686 -0.02162683
000380 df 48 32 bf 86 06 1c 3f b5 c2 e6 3e 04 7e 37 3d
       -0.6964244 0.60947454 0.45070425 0.044797912
000390 7f b3 bd 3e ed 98 8d 3e f1 a1 a2 be a7 17 c3 3e
       0.37051007 0.27655736 -0.31764176 0.38103983
0003a0 df c3 4e be 7c 3b 04 3c 7a d2 97 ba 78 f6 83 be
       -0.20191906 0.008070823 -0.0011583113 -0.25773978
0003b0 c7 f2 86 bd 23 c3 e7 be 7b 4c 18 3f 96 3a a1 3d
       -0.06589275 -0.45266065 0.594917 0.078725025
0003c0 10 83 28 bd d8 3d f0 3d 06 e1 1f bf 84 ba 8c be
       -0.041140616 0.11730546 -0.62452734 -0.2748605
0003d0 ed f8 2a 3f cb e6 5a be 4f 54 24 3f eb 25 29 3f
       0.6678608 -0.21377103 0.64191145 0.66073483
0003e0 d1 e5 d5 3e 67 73 9f 3e c1 d6 69 3e 24 84 c8 3e
       0.41776899 0.31142733 0.22835828 0.39163315
0003f0 30 7c 02 bf f3 86 15 3f ff 08 f4 3e 50 9e 1f be
       -0.50970745 0.5840904 0.47663113 -0.15587735

linear2.weight f4 [3, 256]
000000 29 c1 28 bd 45 72 b3 3b 61 cb 87 3b d9 f5 e8 3b
       -0.041199837 0.0054762685 0.0041441177 0.0071093854
000010 3c 74 e3 3c a4 15 d3 bc 30 88 63 bc a0 83 69 3c
       0.027765386 -0.025767155 -0.01388745 0.014252573
000020 42 5c 5d 3d a8 d0 b3 bc ea 12 d6 3c 2b c6 d7 bc
       0.054043062 -0.021950081 0.026132066 -0.026339611
000030 64 43 e5 3c 2b 4a 33 3d 5e 48 6d 3d 70 35 32 bc
       0.027986236 0.043771904 0.057930343 -0.010876998
000040 e0 f1 00 bd 2c 22 18 3d d6 ac 23 bd 08 7e f9 3c
       -0.03148067 0.037141964 -0.03995975 0.030455604
000050 58 31 37 bc fc ac 30 3d 47 39 80 3b 68 c9 4f 3d
       -0.011181198 0.04313372 0.003913078 0.050729185
000060 a8 69 a0 ba b5 d4 d3 3c 44 0d 92 3c b4 0f 25 3d
       -0.0012238519 0.025858263 0.017828591 0.04029818
000070 58 49 da bc c2 5a 01 bd 86 81 d0 3b a6 e3 48 bd
       -0.026646301 -0.031580694 0.0063630966 -0.049045227
000080 40 31 93 bb 3e 2f 50 3d 5c 8f c9 3c c6 c0 4f bd
       -0.004491955 0.050826304 0.024604492 -0.050720952
000090 68 19 64 3d 78 e3 67 3c 0e a2 60 bd 79 c1 57 3c
       0.05568829 0.014153354 -0.054842047 0.013168686
0000a0 90 46 1b 3d 55 9e 53 bd 63 c9 f7 bc 00 77 66 3d
       0.03790909 -0.05166467 -0.030247396 0.05626583
0000b0 2e a3 09 bd b0 7e 5f 3c 75 9c 15 bb 9b 68 20 bd
       -0.033602886 0.0136410445 -0.0022828851 -0.03916226
0000c0 b8 a9 54 3c 17 fb 56 bd b4 aa 52 3d e8 92 47 3d
       0.012979917 -0.05248555 0.051432326 0.048724085
0000d0 01 60 83 bd 68 c5 ef bc d6 3d 05 3d 70 d0 65 bc
       -0.06414796 -0.029268935 0.032529674 -0.014026746
0000e0 1c f1 19 3d fa ce 38 3d 70 37 2e 3d 94 1e b1 bc
       0.037583455 0.045119263 0.042533338 -0.021621026
0000f0 da e9 e1 3c 00 3f 16 ba df 03 46 3d 1a 1f e5 3c
       0.02757733 -0.00057314336 0.048343536 0.027968932
000100 07 8d 99 bc 14 90 79 3d 38 c0 00 bd 38 8e ab 3c
       -0.018744005 0.06092842 -0.031433314 0.020941839
000110 6d b4 f2 bc 98 ef 18 ba 40 df 39 bd 80 ef 1e 3d
       -0.02962705 -0.0005834042 -0.045378923 0.038802624
000120 70 30 9a 3b a1 b9 51 3d 0c 1b d2 3c e0 02 1e bd
       0.004705481 0.05120242 0.025647663 -0.03857696
000130 b5 b6 58 3d 39 51 1f bc fd 4c a8 ba 85 13 9f bc
       0.052908618 -0.009723955 -0.0012840327 -0.019418487
000140 cd 9e 20 3d 51 28 20 3c 14 2a de 3c 93 00 42 bd
       0.039213944 0.009775237 0.027119674 -0.04736383
000150 70 76 a6 3b d9 b2 3f 3d 50 fb c7 bb f8 1b db bc
       0.005080037 0.04680142 -0.006102957 -0.026746735
000160 ec 96 7a 3a e6 3d 37 3d 56 66 36 3d 32 c2 5b bd
       0.0009559232 0.044736765 0.04453119 -0.053651996
000170 ae 9f 32 bd 30 8b 27 bd 40 3d f6 ba fc 8d a3 bc
       -0.043609314 -0.040904224 -0.0018786564 -0.019965164
000180 14 de 8b 3c 14 71 d9 bc 5e ee 23 bd 78 16 43 3d
       0.017073669 -0.026543178 -0.040022247 0.04762885
000190 9c 61 09 3d f6 82 4d bd d0 ef 2d 3d 84 78 3a bd
       0.033540353 -0.050173722 0.04246503 -0.04552509
0001a0 80 0b 17 ba 88 81 b3 3c 50 74 50 bd d0 c3 4f bd
       -0.00057619065 0.021912351 -0.050892174 -0.05072385
0001b0 67 f0 83 bd be 16 12 bd 80 9a 00 bd 28 33 51 bb
       -0.064423375 -0.03566622 -0.031397343 -0.003192136
0001c0 fc a0 5e 3d 58 8f 7d bd 0c 1d 2c bd a7 1b c9 bc
       0.054352745 -0.06190428 -0.04201989 -0.024549318
0001d0 6a 14 3b bd 42 12 3e bd a0 9f ca bb d3 d1 4f 3d
       -0.045673765 -0.04640413 -0.0061835796 0.050737213
0001e0 c8 20 bd bc d8 a0 7b 3c 85 43 42 bd 34 55 e9 3c
       -0.02308692 0.015358172 -0.047427673 0.02848301
0001f0 cc 5a 25 3d 7a e4 12 bc d8 97 9b bc f2 15 6c bd
       0.040369794 -0.008965606 -0.018993303 -0.057638116
000200 41 4d 1a bd 8e b4 68 bd 87 36 2a 3d f1 2d 7b bc
       -0.03767133 -0.056812815 0.041555908 -0.0153307775
000210 a6 cc be bc e8 5c af 3c 8c 79 3a 3d 60 6d 0f bc
       -0.023290943 0.021406606 0.045526072 -0.008754104
000220 86 10 04 bd 68 02 25 3c 19 9f 7e bd 08 a9 c4 bb
       -0.03224232 0.0100713745 -0.062163446 -0.0060015954
000230 82 32 81 bd 28 e0 ea bc a5 ef 0b bc a8 c4 45 bd
       -0.06308462 -0.02867134 -0.008541022 -0.04828325
000240 20 91 e0 3b d0 2f c6 3c 64 d1 53 3d 9e c1 5c 3d
       0.0068532377 0.02419272 0.051713362 0.053895585
000250 f8 18 5c bc d1 e7 6c 3d 30 6c 55 bd f0 1e 54 3d
       -0.013433687 0.057838265 -0.05210513 0.051787317
000260 e8 a8 6f bd 64 9b f2 3c dd 22 82 bd d8 42 9c bc
       -0.05851069 0.029615112 -0.06354306 -0.019074842
000270 da aa 4c 3d d8 1f 68 bd fa 84 34 bd 30 41 09 bd
       0.049967624 -0.056670994 -0.04407213 -0.033509433
000280 b1 b0 57 bd d8 28 15 bc a7 36 22 bd a5 7e 67 bd
       -0.05265874 -0.009103976 -0.0396029 -0.056517262
000290 0e 96 44 bd f4 9b 7e 3d 3e db 10 3d af e1 48 bc
       -0.047994666 0.062160447 0.035365336 -0.012260838
0002a0 20 07 2d bd 79 3a 10 3d 8c 90 f6 3c 10 b2 38 bc
       -0.042243123 0.035212014 0.030098222 -0.011272922
0002b0 e5 e8 90 3b d0 e4 43 bc 80 1b 8f 3a ba 54 31 bd
       0.0044222944 -0.011956409 0.001091823 -0.043293692
0002c0 10 07 12 bc 46 73 49 bc d0 1a f8 bc 8a b4 17 bc
       -0.008912817 -0.01229555 -0.030286223 -0.009259352
0002d0 d9 e6 5b bc 91 9a 9e bc f1 52 47 3d 28 7b f6 3c
       -0.013421738 -0.019360812 0.048663083 0.030088022
0002e0 64 5b 96 3c b9 8b 07 bd c4 52 de bc 40 f1 51 bc
       0.018354125 -0.033092234 -0.027139075 -0.012813866
0002f0 7c 76 0c 3d f7 e2 b3 3c 0b 45 0e 3b 58 52 4a bc
       0.034292683 0.021958811 0.0021708633 -0.012348734
000300 75 c8 8d 3b 1c 6c f9 bc 3d 9d 5b bd 84 81 c8 bc
       0.004326875 -0.030447058 -0.05361675 -0.02447582
000310 c1 90 ea 3c e4 8f bd bc 74 51 89 bc c0 b5 ee 3c
       0.028633477 -0.023139901 -0.016762473 0.0291394
000320 3b 39 a0 bc 90 de d8 bb 65 d5 7b bd 8e 72 69 bd
       -0.01955854 -0.0066183284 -0.061482806 -0.056994013
000330 00 d8 24 ba b1 de 29 3c 88 8f 09 3c 15 04 16 3d
       -0.000628829 0.010368035 0.008396037 0.036624987
000340 3e d0 23 bd 2e 90 25 3d 7d 44 82 bd 7a 31 6c 3d
       -0.039993517 0.040420704 -0.06360719 0.057664372
000350 40 50 40 3b 22 c4 24 bd 6c a5 69 bd 14 77 6a bd
       0.0029344708 -0.04022611 -0.057042524 -0.057242468
000360 a1 4f 5d 3d 13 e6 5d 3d bf ef 26 3d 08 34 55 3d
       0.05403102 0.054174494 0.040755983 0.052051574
000370 20 a0 1a bd 20 3e 7d 3d 54 ec b5 3c 0e b5 65 bd
       -0.037750363 0.061826825 0.022207417 -0.05608087
000380 5e 72 21 3d 62 24 9f bc a6 04 4e 3c 34 3f 82 bd
       0.03941571 -0.019426528 0.01257435 -0.06359711
000390 26 e1 5b bd 5c f4 25 3d 8c cf 2a bd e9 84 15 bd
       -0.053681515 0.040516242 -0.04170184 -0.036503706
0003a0 18 de 29 3c a8 d4 27 bd 5e e1 80 bd 76 16 7e 3d
       0.010367893 -0.04097429 -0.062929854 0.06203314
0003b0 c4 42 e3 bc 80 1a 67 bd 56 50 72 3d 41 75 56 bd
       -0.027741797 -0.056421757 0.059158646 -0.052357916
0003c0 22 5c 2f bd b5 ae 2d bc 5a 4a 70 3d 5a af 36 3d
       -0.042812474 -0.010600735 0.058664657 0.044600822
0003d0 b0 bc 4f 3b 1c e9 65 3d 85 64 73 bd 04 29 a9 3b
       0.003169816 0.056130514 -0.059422035 0.00516236
0003e0 af c0 b8 bc 1f dd 96 bc 64 31 ba bc 8d 9c a3 3c
       -0.022552816 -0.018415986 -0.02272863 0.01997211
0003f0 f8 76 a6 bc 4a d6 b2 bb c5 b2 c1 bc 5c 8d 26 3d
       -0.0203204 -0.005457674 -0.023644814 0.040662155

linear2.bias f4 [3]
000000 53 41 cf 3c 2a a5 0c 3d 5f 28 8d bb
       0.025299704 0.0343372 -0.004307791
