model/model.pth (torch, 8000 bytes, 4 tensors)

linear1.weight f4 [256, 2]
00000000: 36a0 ed3e c183 40be 020e 343f b940 de3e
00000010: b725 bd3e 324d 0a3d 811d e33d 316b 09bf
00000020: faf4 9cbe 34c2 5b3e c5bd 93be 30c3 f3be
00000030: 4078 7f3c 9450 03be 6abf e8be 7539 6bbd
00000040: 8933 f8bd 246a c7be 016f ccbe 4047 05bf
00000050: 4de0 1cbe e7a4 de3e 802d 30be 2c3d db3e
00000060: 360f 27bf 66cf 1f3f 244e 81be 7cc0 843e
00000070: d05e 1ebe e0fb c3bd d8ec 6abe 6b4b e6bd
00000080: 5237 0d3f 8992 bd3e 11d5 7b3e 4857 193e
00000090: 9a9f 68be b892 3dbe 45e0 8b3e 2371 0dbf
000000a0: eec3 17be 3b0a ef3e 27fc bbbe b9b5 a7be
000000b0: b662 92be a4ce 10bf 2c12 023f c135 e23e
000000c0: a71d 96be 7a1c 7dbe 83e1 053f 881b d73e
000000d0: aa0c cebe 79af 5c3e 6438 13be 1ad5 29bf
000000e0: 3820 18bf 1f00 dbbe bea6 fc3e 8712 2c3f
000000f0: 0d55 ffbc eb98 b53e 58e2 f7be 73f9 293f
00000100: 109e 053f 6245 4ebe 8bc4 ebbe 1b2d f13e
00000110: c020 41bd bc47 2ebf b257 0dbf d064 733e
00000120: 7276 123e 409b e63e b1a1 293f 50b1 1bbf
00000130: ff38 87be 5c33 34bf 9bef 00bf b269 0cbf
00000140: 8f7e 45be 53b0 053d f6ca b1bd cd9c cabe
00000150: ed3f cabe 976c 1a3c 1ed7 34bf 5137 26bf
00000160: 76c6 06bf 2fa4 293f 90cb 2a3f eecd 863e
00000170: ecce 963e 998b f4be 7636 323f 832b 88bd
00000180: d836 0b3f 05b0 5ebe 7ef3 183f 4fe2 c43e
00000190: 9a63 4f3d 3a4c 0d3f e39b 723d 2f39 abbe
000001a0: f3e4 18bf 8ec9 c9be 902b adbe 5853 88be
000001b0: d74f 04bf 3c6f 3a3e bd70 fd3e df7e ed3e
000001c0: 5031 193f c8e6 873e 9d89 3bbe 03f5 e3be
000001d0: 0e3b a63d 9c45 603d 1027 40be 5254 503e
000001e0: 812e 0d3f 9379 92bd 7a39 aa3e 1c34 b03d
000001f0: 984a 84be a728 eb3e e89c 4e3e 5ca3 063f
00000200: 5303 50bf ea2f a73e 5496 083f 2e0c 22be
00000210: bc48 47be 5c7f 103e f0b7 70be e2f5 203f
00000220: ec62 513d 5ea3 49be cba5 8fbe b76c afbe
00000230: 3b3a 2b3d 8a53 9cbc 7af8 34bf 6dfd 013f
00000240: 56fd d6be 103b 4ebe 38d2 313f a847 09bf
00000250: ac1a 14be 1c7f f9be d505 5bbe 29a3 053f
00000260: 7da5 f5be 2bdb 073f 2ecc 09bf 336e cb3e
00000270: 5564 eebe d1f6 82be 5587 c33e a817 003e
00000280: a273 0f3f 829b 10be 34cc 1cbf 23ae 143e
00000290: fdcc 2dbf 8a64 093f 3ea0 143f 955a e63e
000002a0: 518e 033e f4ec 27bf 7f51 dc3e cf9c 943e
000002b0: 865a 0d3f a0cf cbbe 8bf4 ea3d b549 04bf
000002c0: f35c 093d a22c 123f fc7c 8cbe c823 34bf
000002d0: 6a3f 0d3e da85 e8be 4840 45be 3015 11bf
000002e0: cc66 073f 8a94 e1be cc1f 25bf 10f7 2d3d
000002f0: c867 173f b98e 9cbe 0b79 fbbd f3bb a7be
00000300: 0b38 083f e9b9 333c 2595 083f 1079 07bf
00000310: b027 02be 10f1 59be 47e8 23bf 313e e33e
00000320: c59c fe3e 0302 1abf 5b05 0d3e 6c0d 2bbf
00000330: c190 983e defa bebe e164 e0be 281a 29be
00000340: a5f1 0f3f ca08 01bf 7c64 1cbe 385b 013f
00000350: 5b29 0a3f 4ff6 cbbe 81f1 913e 0021 8fbd
00000360: fae0 3abe bffa 033f 5876 f9be f81a 75be
00000370: f63b 4cbe 16a2 893d 8094 933e c662 18be
00000380: d9b7 df3e 8514 e73e ac6b 153d 8a07 2abf
00000390: 8008 153f cc5a 263f f827 2abf 37e4 d73e
000003a0: c109 2a3f 06d4 8bbe 4faf 25bf f0fc dd3e
000003b0: 209f a83d bc79 b9be 34f3 863e 1292 28bf
000003c0: fe4a 273f fc05 47be 8839 bdbd 8ca2 a6be
000003d0: 95c9 81be c685 0d3e 1420 42be 0baa 64bd
000003e0: 346f 37be 20f8 8e3d 0cee 113f c7e0 0e3f
000003f0: 6bc6 1c3e a0b4 fcbc 0853 f03d 2cf5 d3be
0.46411294 -0.1880026 0.70333874 0.43408754 0.36942837 0.033765025 0.11089612 -0.53679186
-0.30655652 0.21460801 -0.2885572 -0.47609854 0.015592635 -0.12823707 -0.45458537 -0.057427842
-0.121192046 -0.38948166 -0.3992844 -0.52061844 -0.15319939 0.43485186 -0.17204857 0.42820108
-0.65257585 0.6242584 -0.2525493 0.25928104 -0.15465856 -0.09569526 -0.22941911 -0.112448536
0.5516254 0.3702586 0.24592997 0.14974701 -0.22717133 -0.18513 0.27319542 -0.5525076
-0.14820835 0.46687493 -0.36715814 -0.3275583 -0.28590935 -0.5656531 0.5080898 0.44181636
-0.29319498 -0.24717894 0.5229723 0.42013192 -0.40244037 0.21551313 -0.1437698 -0.6634079
-0.5942416 -0.4277353 0.49345964 0.6721577 -0.031168485 0.3546823 -0.48414874 0.66396254
0.5219431 -0.20143655 -0.46048388 0.47104725 -0.047150373 -0.6807821 -0.5521194 0.23768926
0.14302996 0.4504032 0.66262347 -0.6081743 -0.26410672 -0.7039087 -0.5036561 -0.5484878
-0.1928656 0.03263886 -0.0868129 -0.39572755 -0.39501897 0.009425304 -0.7064074 -0.64928156
-0.5264658 0.6626615 0.6671686 0.26328987 0.29454744 -0.47762755 0.6961435 -0.06648924
0.5438056 -0.21746834 0.5974654 0.3845391 0.050632097 0.5519444 0.059230696 -0.33442065
-0.5972435 -0.39411587 -0.33822298 -0.26626086 -0.51684326 0.18206495 0.49500075 0.46385857
0.5984087 0.2654326 -0.18314214 -0.44522867 0.081167325 0.054753885 -0.18764901 0.20344666
0.55149084 -0.07152095 0.33246976 0.08603689 -0.2583816 0.45929453 0.20177042 0.52593017
-0.8125507 0.32653743 0.5335438 -0.15824959 -0.1946134 0.14111084 -0.23507667 0.6287519
0.05111973 -0.19691226 -0.28056177 -0.3426263 0.04180358 -0.019082803 -0.70691645 0.5077732
-0.41990155 -0.20139718 0.69461393 -0.53624964 -0.144633 -0.4872979 -0.21388943 0.5220209
-0.4797782 0.530688 -0.5382718 0.39732513 -0.46560922 -0.2557893 0.38189188 0.12509024
0.56035817 -0.14121822 -0.6124909 0.14519553 -0.6789091 0.53669035 0.5805701 0.44990984
0.12847258 -0.65595937 0.43030927 0.29025885 0.5521625 -0.39806843 0.11472424 -0.5167497
0.03353591 0.57099354 -0.27439106 -0.703671 0.13793722 -0.4541462 -0.19262803 -0.56672955
0.5289123 -0.4405864 -0.64501643 0.042471945 0.5914273 -0.3057764 -0.122789465 -0.3276058
0.53210515 0.010969617 0.53352576 -0.529191 -0.12710452 -0.21283364 -0.640263 0.44383386
0.4972898 -0.6015932 0.13771574 -0.66817355 0.29797938 -0.3730077 -0.43826964 -0.16513884
0.56228095 -0.50404036 -0.15272707 0.50529814 0.53969353 -0.39836356 0.28504565 -0.06988716
-0.18249884 0.51554483 -0.48723102 -0.23936069 -0.19944748 0.067203686 0.28824234 -0.14881429
0.43694952 0.45132843 0.036479637 -0.66417754 0.58216095 0.64982295 -0.6646724 0.42166302
0.66421133 -0.273102 -0.64720625 0.43357038 0.08233476 -0.36225688 0.26357424 -0.65847886
0.65348804 -0.19435877 -0.09239489 -0.32545888 -0.25349107 0.13820562 -0.1895755 -0.055826228
-0.17913514 0.0698092 0.57003856 0.55811733 0.15310065 -0.030847847 0.11734587 -0.4139799

linear1.bias f4 [256]
00000000: a19f 91be 1a03 c73e f165 80be ebfc 8c3e
00000010: a534 0dbf c6ec 20bf 387d fcbd ca2f cd3e
00000020: 23e7 ca3e c42b b9be 8e2f 613e cbd3 3fbf
00000030: 74e6 24bf ca85 c13e d300 c43e c0bc 253e
00000040: 428c e9be 9f66 313d 3d56 e9be f72d 25bd
00000050: f6c6 39bf c5c5 bc3d befe 2e3f cafc 00bf
00000060: 9d03 cabe 443d 30bf d82e abbd e11f 8abe
00000070: 4003 d5bc e0fb 52b9 ee98 35bf 752f 28bf
00000080: 95a1 6ebe 3961 0bbe 140a 1dbf 9178 e63e
00000090: 7157 e33e ff51 a43e 6bad 11bf 98b1 87be
000000a0: 2b41 713d 8dbf 203f 9bd7 523f 5c57 483f
000000b0: 865f 303f 9387 7f3e 21a1 d9be 7f03 9cbe
000000c0: a1a8 6cbd b039 f3bd cd3c 5fbe 93b8 9cbd
000000d0: 9376 113f ed09 173d 706e 2abf 7b57 1e3f
000000e0: 75ed 9d3e fee2 763e 049d 993e c6d3 f53e
000000f0: 1dea 97be 5248 7b3e 093e 79be 9a9f bd3c
00000100: 1021 813e be55 73be 2fc5 92be 868d 323e
00000110: 4c13 c83e 51bf b5be b8f7 85bd 5f2b babe
00000120: e422 13be 84cf 243e 82a7 8fbe 8dec 983e
00000130: 22e6 123f b530 f6be 128c 1d3f 4d9a 0f3e
00000140: 6bf4 e3be 26ae 94be b26d 273f 8a91 0c3f
00000150: 4e24 73be 035a 67be 21ef 06bc cacb b9bb
00000160: 1877 a6be a78b aa3e 276d 593b 316c 90be
00000170: 3a36 fdbe e086 26bf 1641 db3c 69a1 d83e
00000180: e7b9 b3bc fcbc 443e 00c6 e0ba 9f4f 23be
00000190: ea50 ec3e bb24 c8bd 8c38 543d f44b 00be
000001a0: 7b89 aa3e b41c abbe 0d08 34be 2c44 14bf
000001b0: 31a7 033f 3b2d 143f aad6 333f a0fa 2b3f
000001c0: e9f8 1cbf 563b 803e bb57 96be 1173 97be
000001d0: 0b77 05be e6ab 19bd d4bb 543e 74ac 0abf
000001e0: a10e 7ebe c0b9 bbbe bc85 8dbe ef40 003e
000001f0: b43c dabe ee16 583e 0cfc a4be 7de2 ae3e
00000200: 8c68 723e 8f16 2a3f 5e50 0c3f 1d54 d736
00000210: 46e6 2a3d cbe7 8f3e 749a 33bf ca4d 8b3d
00000220: 2ee1 1dbf dfec 92be 37fb ea3e f79b 0b3f
00000230: 6840 34bf cc00 c13e 21c0 83be 3581 a63e
00000240: af10 90bd 0c77 9bbe 0b3b 83bb 1ac8 b7be
00000250: c278 d7be 0daa 88be 1c4d 2ebf 8787 bc3e
00000260: 8c1d 09be 86e0 12bf 8028 093e f4d2 f7be
00000270: 77ff b53d 4f56 f53e 8df6 d53c 362c 0b3f
00000280: cec4 253d bb01 11bf 04ca 23bf ebfc 4f3e
00000290: aecc 23bf 3cf9 1bbf a7e3 153e 1c16 1b3f
000002a0: e045 bbbc 00ed 583e fa1e 1fbf be08 c83e
000002b0: 731d 113f e58a 2f3f 3bb8 9c3e c0b7 5dbc
000002c0: 7992 073f b512 f93e 9331 403f fc01 38be
000002d0: dead b4be 6d13 123f 48f8 8c3e 1c91 34bf
000002e0: 6cd8 80bd 83d6 3c3e 5419 0abe 16ef fbbe
000002f0: ed0c 213f 1131 e5be 6c70 0d3f 01f2 ffbe
00000300: 0ebc 043f 3207 403e 0f8b 423f 8e95 95be
00000310: 2a71 edbe ecc4 a23d dac8 98be 5990 c73e
00000320: 34b5 143e 6cea 1abf 23b5 00bf 5d3f 1abf
00000330: 8dab 90be a809 8b3e 9f3e f43e 5549 d8bd
00000340: 2fcf 9fbe 9dfb 173e 6ead 79be a936 d8be
00000350: cea9 0fbf 4596 1c3f 5d3f 11bf 27d1 173f
00000360: 54ae 1d3f 8264 54be e5d6 273e 0a05 a73e
00000370: 11a7 1c3e ebf1 f8be d244 9dbd df82 3e3b
00000380: 393b 17bf 78c9 17be 7a19 c4be 65f8 a63e
00000390: 4c0c 833e 37f2 dfbe b2ed 22bf 24b0 c93e
000003a0: d028 cf3e ad65 11bf a26c b2be 85dd 2c3f
000003b0: 126b ce3e ff23 0ebf 2793 a43e 1344 20bf
000003c0: 2adc 07bf 6f0e 09bf 4f85 99be 75a2 eebe
000003d0: 2104 ce3e bab8 f93e 0770 1c3f 3cc8 b33e
000003e0: 0f25 cabe b2da dbbe 629b 9cbe 882b bdbe
000003f0: 5b5b 193f ac4f aa3e 0b49 e5be 7848 1a3f
-0.284421 0.38869554 -0.25077775 0.2753671 -0.55158454 -0.6286129 -0.12328571 0.40075523
0.39629468 -0.36166203 0.21990797 -0.74932545 -0.64414144 0.37797385 0.3828188 0.16185284
-0.4561482 0.043310758 -0.45573607 -0.04032704 -0.72569215 0.09217409 0.68357456 -0.50385725
-0.39455882 -0.68843484 -0.08358544 -0.26977447 -0.026002526 -0.00020120991 -0.7093648 -0.65697414
-0.23303826 -0.13611306 -0.61343503 0.4501386 0.4440265 0.32093808 -0.5690524 -0.2650268
0.05890004 0.62792283 0.8236024 0.782583 0.6889576 0.24954061 -0.42505744 -0.30471417
-0.057778005 -0.118762374 -0.21800537 -0.07652392 0.56821555 0.0368747 -0.66574764 0.61852235
0.30845228 0.24110028 0.30002606 0.48013133 -0.29670802 0.24539307 -0.24340071 0.023147393
0.25220537 -0.23763177 -0.28666064 0.174368 0.39077222 -0.35497525 -0.06541389 -0.36361215
-0.14368778 0.16094786 -0.28057486 0.29867974 0.57382405 -0.48084036 0.61541855 0.14023705
-0.44522414 -0.29039115 0.65401757 0.54909575 -0.23744318 -0.2259293 -0.008235724 -0.0056700455
-0.32512736 0.3330967 0.0033176632 -0.28207543 -0.49455434 -0.6504955 0.026764434 0.42310646
-0.021939231 0.19212717 -0.0017148852 -0.15948342 0.46155483 -0.09772631 0.05181174 -0.12528974
0.33308014 -0.33420336 -0.17581196 -0.5791652 0.5142699 0.57881516 0.70249426 0.671793
-0.61317307 0.2504527 -0.29363808 -0.29579976 -0.13033693 -0.03751745 0.20774776 -0.5416939
-0.24810268 -0.36665154 -0.27641094 0.1252477 -0.42624438 0.21102497 -0.32223547 0.34157172
0.23672694 0.6644067 0.5481013 6.4172914e-06 0.041723512 0.28106532 -0.7015755 0.068019465
-0.6167172 -0.28696343 0.45894787 0.5453486 -0.70410776 0.3769592 -0.2573252 0.32520452
-0.07034432 -0.30364263 -0.004004841 -0.35894853 -0.42084318 -0.26692238 -0.6808641 0.3682215
-0.13390177 -0.57373846 0.13394356 -0.48403132 0.08886617 0.4791741 0.026118541 0.54364336
0.04047089 -0.56643265 -0.63980126 0.20311324 -0.6398419 -0.60927176 0.14637624 0.6058061
-0.022860467 0.21184158 -0.6215664 0.3906917 0.5668556 0.6857131 0.30609307 -0.013532579
0.52957875 0.48647085 0.75075644 -0.17969507 -0.352889 0.5706089 0.27533174 -0.7053392
-0.06291279 0.18441205 -0.13486224 -0.49205846 0.6291035 -0.44763997 0.5524967 -0.49989322
0.5184945 0.18752745 0.75993437 -0.29215664 -0.463754 0.07947716 -0.29840738 0.38977316
0.14522249 -0.6051395 -0.5027639 -0.60252935 -0.28255883 0.27155805 0.47704026 -0.10560862
-0.31212756 0.14842077 -0.24382564 -0.42229202 -0.56118476 0.61166793 -0.5673731 0.59303516
0.6159413 -0.20741466 0.1639057 0.32621032 0.15298106 -0.4862207 -0.07679142 0.0029069704
-0.5907474 -0.14822948 -0.38300687 0.32611385 0.2559532 -0.43739483 -0.63643944 0.39392197
0.40460825 -0.5679577 -0.34848505 0.6752551 0.40316063 -0.55523676 0.32143518 -0.62603873
-0.5307032 -0.5353765 -0.2998452 -0.4660832 0.40237525 0.48773748 0.6110844 0.35113704
-0.39481398 -0.4294029 -0.30587298 -0.36947274 0.5990502 0.3326391 -0.4478229 0.6026683

linear2.weight f4 [3, 256]
00000000: 49d1 53bc 5bb3 033d 83e1 83bd 93cd 833c
00000010: 7e1c 60bd 5826 2bbd 009a e2ba 7098 e03c
00000020: ad21 6c3d 2c7d 8bbc 7b93 153d 9e7a a63b
00000030: 27fb 7abd d10a 5d3b 6c0b 4d3c a542 3b3d
00000040: f6a7 133d de17 d3bb 6492 58bd 0acf 1c3c
00000050: 41a4 0c3d 2307 8b3d 3de3 bc3d f63f 07bd
00000060: 5291 6b3d d94f 033d f31b 88bd d06d 733d
00000070: a4f0 b23c d583 5dbd c713 79b3 f802 15bd
00000080: 0998 213c b5a1 323d 4066 473c df15 8b3d
00000090: ffe6 983d 2425 e33b 4aa9 30bd f2cf 73bd
000000a0: 6377 10bb e4b2 0b3e 94ea d33d 8335 003e
000000b0: e841 8e3d b659 ab3c dee3 32bd cd9b 93bd
000000c0: 7934 2a3d 77f6 e7ba 8087 613d 8799 ed3c
000000d0: 4be4 2a3e 76cc 3b3c 4c67 293d bead 583c
000000e0: e73c 243d 9f22 8a3d 2c0b 4d3d d6db 5fbc
000000f0: 86bc 46bc 787f 5fba d90f 3b3c afb5 47bd
00000100: bd24 f4bb d325 84bd 05ca 113d 0651 cfbc
00000110: f1c2 793c 086c a63c 259e 533d 35f8 b6bd
00000120: 44d2 f0bc 8fbf 0f3d ba2c 25bd 2864 ad3c
00000130: d84b 60bc dd90 9cbd 4310 f83d 91d1 e53a
00000140: 15e3 1b3d 5b3c 1db2 f29e 7f3d 7c25 92bc
00000150: 2ccc cfbc cdc6 943c 8d8c 0ebd e77d 73bd
00000160: adb8 063d ba5f 2a3e 827e a03a 4070 a83b
00000170: f33e ccbc 2c5c 443d a6c8 173c a30c a53d
00000180: 8e3f 2caf b07c a43c a2a7 203d e751 45bd
00000190: 0652 8a3c 987b 0bbd 3593 393d 9ce9 f3bc
000001a0: 562f 44bc 050c aabc 4e0a 7cbb 0a63 fcbc
000001b0: 1a0b d33b a1ff f23c 8ddf 613d 98b4 aa3c
000001c0: 2b1a a8bb 81fe b53d 8e20 773c 644a 5ebd
000001d0: c8e1 c0bc bd5f 82bd 8485 1d3d 908b f13c
000001e0: 0b0f 9cbd a8b3 a9bc 574b c6b1 d1e5 9e3d
000001f0: 583f d1bc 187e 593d 2af4 3bbd 258c ca3b
00000200: 781a 6a3c 252d 413d 0476 783d 7d22 ffb6
00000210: b490 a5bc ee8d 03bd 307b c833 f546 423d
00000220: 802d 6bbb 287a 6abd 2a4c 9d3d 0f07 cf3d
00000230: 403e 703b 26eb eb3d a731 67bd 9c50 673b
00000240: fa57 cfbd cabf eebc a2ed 49bd b08b 8ebc
00000250: a8c5 b0bc 903f a2bc bc98 803c cafb a2bc
00000260: aaa4 86bd fd5b 51b9 b2de cbb8 a693 83b1
00000270: 5d54 82bc 3446 a4bc 55a2 2e3b fe52 86bc
00000280: e628 eabc a48a 99bc a40e ccbc 92cc f63b
00000290: 9e5d 3fbd 6ed4 91bc 0a66 a73b 98ef 2e3d
000002a0: 98a1 613c 8e1f 01bd d1ec 4b3d 47fe 8c3d
000002b0: a651 2d3d 8a26 163d d4bb b73c 68db fd3c
000002c0: ff64 163d f3bf 9c3d d9e5 c03d c701 543d
000002d0: 9095 363c e1af c4bc 9677 783c 8ccc cb3c
000002e0: 6012 f6ba 111d f43b b7b2 9f3c 3c00 87bc
000002f0: 2b7d 183d 5449 99bc 4a39 253d fcfb c93c
00000300: 4906 623b 8866 aa3d 16b2 903d 2f99 73bd
00000310: a0d0 84bc 2c02 02bb 2bac 98bd 4b1e 1c3e
00000320: 7c01 093d 0a0c 723d 1046 ef3c 9923 323d
00000330: a8cc c13c 44a8 a3bc 8f73 c73c d26c 643d
00000340: 33fd 2e34 1f90 303d a233 3abd fb62 183c
00000350: 59b2 c0b2 8214 c43c 2829 123c bc91 6f3d
00000360: a848 933d 2878 2f3d eb3c e73d e871 8c3d
00000370: 9f4a 2ebc 2f55 2abd 8363 023d a6f2 7eb9
00000380: 78f0 48bc b39d 353d b2f2 29bd 8f49 483d
00000390: 370b 9d3d fe15 e7bc e6d5 aabd 2714 053d
000003a0: 895b 0b3e 6c89 06bd d24f 3c3d ef83 2c3d
000003b0: fcfb 9fbc 6286 68bd f223 e93d b8c6 f0bc
000003c0: b2bc 0f3d e866 7abd 1dde 08bd 787a c93c
000003d0: 20a0 b83d 4b22 443d 3477 c03d 17f7 433d
000003e0: a9d2 9a3c 3408 fdbc 64bc 603d 147c 1fbd
000003f0: 8bab 183d 14e2 ab3c e237 0bbd 6218 f63d
-0.012928315 0.03215347 -0.06439497 0.016089236 -0.054714672 -0.041784614 -0.0017288327 0.027416438
0.057649303 -0.01702746 0.0365176 0.005080535 -0.061274674 0.003372837 0.01251493 0.045717854
0.036048852 -0.006442054 -0.052873984 0.009570846 0.034336332 0.067884706 0.0922303 -0.033019982
0.057511635 0.03205857 -0.06645956 0.059430897 0.021843262 -0.054080803 -5.7992818e-08 -0.036379784
0.009862908 0.043611247 0.012170374 0.06791281 0.07465934 0.0069319177 -0.043130197 -0.059524484
-0.0022043816 0.1364246 0.103474766 0.12520413 0.06946164 0.020916801 -0.043674342 -0.07207451
0.041553948 -0.0017697354 0.055060863 0.029003872 0.1668865 0.0114623215 0.041358277 0.013225017
0.040097144 0.06744885 0.050059482 -0.013663253 -0.012129908 -0.0008525769 0.011417353 -0.04875725
-0.0074506686 -0.06452527 0.03559305 -0.02530719 0.015244232 0.020315185 0.05166449 -0.089340605
-0.029397137 0.035094794 -0.040325858 0.021165922 -0.013689958 -0.07644818 0.12112477 0.0017533769
0.03805836 -9.152326e-09 0.06240744 -0.01784014 -0.025365911 0.018161202 -0.03480201 -0.05944624
0.032890964 0.1663808 0.0012244734 0.0051403344 -0.02493236 0.047939464 0.009264147 0.08059051
-1.5665888e-10 0.020078987 0.039222367 -0.04817381 0.016884815 -0.034053415 0.045306403 -0.02977448
-0.011974176 -0.020757684 -0.003845829 -0.030808944 0.0064405324 0.029662909 0.055144835 0.020838067
-0.0051300726 0.088864334 0.015083445 -0.054270163 -0.02354516 -0.06365917 0.03845741 0.029485494
-0.07620057 -0.02071555 -5.7711236e-09 0.07758678 -0.0255429 0.053098768 -0.04588715 0.0061812573
0.014288537 0.047162194 0.060659423 -7.603607e-06 -0.020210601 -0.032117777 9.3356334e-08 0.04743095
-0.0035885274 -0.057245404 0.07680543 0.10108768 0.0036658198 0.115194604 -0.056443837 0.003529585
-0.10124202 -0.029144187 -0.04929889 -0.017400593 -0.021578625 -0.0198057 0.01569783 -0.019895453
-0.06574376 -0.00019966062 -9.7212745e-05 -3.8293875e-09 -0.015909368 -0.020053007 0.002664705 -0.016396996
-0.028583955 -0.018742867 -0.024909325 0.007531711 -0.04672014 -0.01780149 0.0051085996 0.042708963
0.013771437 -0.031524234 0.049786393 0.06884437 0.042314194 0.036657847 0.02242843 0.03098841
0.03671741 0.07653799 0.0941884 0.051759508 0.011144057 -0.024009647 0.01516523 0.024877809
-0.0018773787 0.007449754 0.019494398 -0.016479604 0.037228744 -0.018711723 0.04033784 0.024656288
0.003448861 0.083203375 0.07065217 -0.05947226 -0.016212761 -0.001983772 -0.074547134 0.15245931
0.03344868 0.059093513 0.029208213 0.04349098 0.023657158 -0.019977696 0.024347095 0.05576784
1.6297126e-07 0.043106195 -0.045459397 0.0093009425 -2.2432845e-08 0.02393556 0.008920945 0.058488593
0.071915925 0.0428392 0.11290916 0.068576634 -0.010637908 -0.041585144 0.031833183 -0.00024313721
-0.0122643635 0.044339847 -0.041491218 0.048898276 0.07668155 -0.028208729 -0.08341579 0.032489922
0.13609137 -0.0328459 0.04597456 0.04211801 -0.019529335 -0.056768782 0.11383809 -0.029391631
0.035092063 -0.061133295 -0.03341495 0.02459453 0.090149164 0.047884267 0.09397736 0.047843065
0.018899279 -0.0308877 0.054867163 -0.03893669 0.03727297 0.020981826 -0.03398884 0.120163694

linear2.bias f4 [3]
00000000: eb49 3f3d 2fe9 1bbc f588 0fbd
0.046701353 -0.0095160445 -0.03504272
